…
 neg_head_p      | 0.5          
 num_heads       | 4            
 num_layers      | 4            
 num_neg         | 1            
 num_workers     | 5            
 only_predict    | 0            
 optimizer       | Adam         
 pooling         | average      
 random_seed     | 2019         
 t_scalar        | 60           
 topk            | [5,10,50]    
=================================
INFO:root:cuda available: False
INFO:root:# cuda devices: 0
INFO:root:Load corpus from ../data/Office\DFTReader.pkl
INFO:root:#params: 624768
INFO:root:KDA(
  (user_embeddings): Embedding(4906, 64)
  (entity_embeddings): Embedding(2803, 64)
  (relation_embeddings): Embedding(5, 64)
  (relational_dynamic_aggregation): RelationalDynamicAggregation(
    (relation_embeddings): Embedding(5, 64)
    (freq_real): Embedding(5, 33)
    (freq_imag): Embedding(5, 33)
  )
  (attn_head): MultiHeadAttention(
    (q_linear): Linear(in_features=64, out_features=64, bias=False)
    (k_linear): Linear(in_features=64, out_features=64, bias=False)
    (v_linear): Linear(in_features=64, out_features=64, bias=False)
  )
  (W1): Linear(in_features=64, out_features=64, bias=True)
  (W2): Linear(in_features=64, out_features=64, bias=True)
  (dropout_layer): Dropout(p=0, inplace=False)
  (layer_norm): LayerNorm((64,), eps=1e-05, elementwise_affine=True)
  (item_bias): Embedding(2422, 1)
  (blstm): LSTM(128, 64, batch_first=True, bidirectional=True)
  (fusion_layer): Linear(in_features=128, out_features=64, bias=True)
)
INFO:root:Test Before Training: (HR@10:0.0977,HR@5:0.0471,HR@50:0.5036,NDCG@10:0.0442,NDCG@5:0.0281,NDCG@50:0.1288)
INFO:root:Optimizer: Adam
INFO:root:all_losses: [1.3004451  0.69311637]
INFO:root:Epoch 1     loss=1.3004 [100.1 s]	 dev=(HR@5:0.1062,NDCG@5:0.0624) test=(HR@5:0.0701,NDCG@5:0.0406) [66.8 s] 
INFO:root:Save model to ../model/KDA/KDA_Office_2019_lr=0.001_l2=1e-06_num...
…
