…
 neg_head_p      | 0.5          
 num_heads       | 4            
 num_layers      | 5            
 num_neg         | 1            
 num_workers     | 5            
 only_predict    | 0            
 optimizer       | Adam         
 pooling         | average      
 random_seed     | 2019         
 t_scalar        | 60           
 topk            | [5,10,50]    
=================================
INFO:root:cuda available: False
INFO:root:# cuda devices: 0
INFO:root:Load corpus from ../data/ml-100k\DFTReader.pkl
INFO:root:#params: 282737
INFO:root:KDA(
  (user_embeddings): Embedding(944, 64)
  (entity_embeddings): Embedding(1405, 64)
  (relation_embeddings): Embedding(21, 64)
  (relational_dynamic_aggregation): RelationalDynamicAggregation(
    (relation_embeddings): Embedding(21, 64)
    (freq_real): Embedding(21, 33)
    (freq_imag): Embedding(21, 33)
  )
  (attn_head): MultiHeadAttention(
    (q_linear): Linear(in_features=64, out_features=64, bias=False)
    (k_linear): Linear(in_features=64, out_features=64, bias=False)
    (v_linear): Linear(in_features=64, out_features=64, bias=False)
  )
  (W1): Linear(in_features=64, out_features=64, bias=True)
  (W2): Linear(in_features=64, out_features=64, bias=True)
  (dropout_layer): Dropout(p=0, inplace=False)
  (layer_norm): LayerNorm((64,), eps=1e-05, elementwise_affine=True)
  (item_bias): Embedding(1351, 1)
  (blstm): LSTM(128, 64, batch_first=True, bidirectional=True)
  (fusion_layer): Linear(in_features=128, out_features=64, bias=True)
)
INFO:root:Test Before Training: (HR@10:0.0944,HR@5:0.0488,HR@50:0.4825,NDCG@10:0.0440,NDCG@5:0.0295,NDCG@50:0.1257)
INFO:root:Optimizer: Adam
INFO:root:all_losses: [0.6158224 0.6931466]
INFO:root:Epoch 1     loss=0.6158 [120.7 s]	 dev=(HR@5:0.2333,NDCG@5:0.1553) test=(HR@5:0.2174,NDCG@5:0.1482) [28.2 s] 
INFO:root:Save model to ../model/KDA/KDA_ml-100k_2019_lr=0.0001_l2=1e-06_n...
…
