…
INFO:root:"# user": 944, "# item": 1350, "# entry": 99287
INFO:root:Appending history info...
INFO:root:Constructing relation triplets...
INFO:root:Item-item relations:[]
INFO:root:Attribute-based relations:['i_year', 'i_Action', 'i_Adventure', 'i_Animation', "i_Children's", 'i_Comedy', 'i_Crime', 'i_Documentary', 'i_Drama', 'i_Fantasy', 'i_Film-Noir', 'i_Horror', 'i_Musical', 'i_Mystery', 'i_Romance', 'i_Sci-Fi', 'i_Thriller', 'i_War', 'i_Western', 'i_Other']
INFO:root:"# relation": 21, "# triplet": 3789
INFO:root:Save corpus to ../data/ml-100k\DFTReader.pkl
INFO:root:#params: 175153
INFO:root:KDA(
  (user_embeddings): Embedding(944, 64)
  (entity_embeddings): Embedding(1405, 64)
  (relation_embeddings): Embedding(21, 64)
  (relational_dynamic_aggregation): RelationalDynamicAggregation(
    (relation_embeddings): Embedding(21, 64)
    (freq_real): Embedding(21, 33)
    (freq_imag): Embedding(21, 33)
  )
  (attn_head): MultiHeadAttention(
    (q_linear): Linear(in_features=64, out_features=64, bias=False)
    (k_linear): Linear(in_features=64, out_features=64, bias=False)
    (v_linear): Linear(in_features=64, out_features=64, bias=False)
  )
  (W1): Linear(in_features=64, out_features=64, bias=True)
  (W2): Linear(in_features=64, out_features=64, bias=True)
  (dropout_layer): Dropout(p=0, inplace=False)
  (layer_norm): LayerNorm((64,), eps=1e-05, elementwise_affine=True)
  (item_bias): Embedding(1351, 1)
)
INFO:root:Test Before Training: (HR@10:0.0785,HR@5:0.0392,HR@50:0.4910,NDCG@10:0.0374,NDCG@5:0.0249,NDCG@50:0.1236)
INFO:root:Optimizer: Adam
INFO:root:all_losses: [0.45986494 0.6930996 ]
INFO:root:Epoch 1     loss=0.4599 [96.8 s]	 dev=(HR@5:0.2206,NDCG@5:0.1428) test=(HR@5:0.2163,NDCG@5:0.1489) [36.0 s] 
INFO:root:Save model to ../model/KDA/KDA_ml-100k_2019_lr=0.001_l2=1e-06_nu...
…
 neg_head_p      | 0.5          
 num_heads       | 4            
 num_layers      | 5            
 num_neg         | 1            
 num_workers     | 5            
 only_predict    | 0            
 optimizer       | Adam         
 pooling         | average      
 random_seed     | 2019         
 t_scalar        | 60           
 topk            | [5,10,50]    
=================================
INFO:root:cuda available: True
INFO:root:# cuda devices: 1
INFO:root:Load corpus from ../data/ml-100k\DFTReader.pkl
INFO:root:#params: 282737
INFO:root:KDA(
  (user_embeddings): Embedding(944, 64)
  (entity_embeddings): Embedding(1405, 64)
  (relation_embeddings): Embedding(21, 64)
  (relational_dynamic_aggregation): RelationalDynamicAggregation(
    (relation_embeddings): Embedding(21, 64)
    (freq_real): Embedding(21, 33)
    (freq_imag): Embedding(21, 33)
  )
  (attn_head): MultiHeadAttention(
    (q_linear): Linear(in_features=64, out_features=64, bias=False)
    (k_linear): Linear(in_features=64, out_features=64, bias=False)
    (v_linear): Linear(in_features=64, out_features=64, bias=False)
  )
  (W1): Linear(in_features=64, out_features=64, bias=True)
  (W2): Linear(in_features=64, out_features=64, bias=True)
  (dropout_layer): Dropout(p=0, inplace=False)
  (layer_norm): LayerNorm((64,), eps=1e-05, elementwise_affine=True)
  (item_bias): Embedding(1351, 1)
  (blstm): LSTM(128, 64, batch_first=True, bidirectional=True)
  (fusion_layer): Linear(in_features=128, out_features=64, bias=True)
)
INFO:root:Test Before Training: (HR@10:1.0000,HR@5:1.0000,HR@50:1.0000,NDCG@10:1.0000,NDCG@5:1.0000,NDCG@50:1.0000)
INFO:root:Optimizer: Adam
INFO:root:Early stop manually
INFO:root:Namespace(model_name='KDA')
INFO:root:--------------------------------------------- BEGIN: 2025-03-16 13:16:45 ---------------------------------------------
INFO:root:
…
