…
 num_neg             | 1            
 num_workers         | 5            
 only_predict        | 0            
 optimizer           | Adam         
 plm_name            | feat.GPT     
 plm_size            | 1536         
 pooling             | average      
 random_seed         | 2019         
 t_scalar            | 60           
 topk                | [5,10,50]    
=====================================
INFO:root:cuda available: False
INFO:root:# cuda devices: 0
INFO:root:Load corpus from ../data/Office\DFTReader_8.pkl
INFO:root:#params: 4336925
INFO:root:KDAPlus(
  (user_embeddings): Embedding(4906, 64)
  (item_embeddings): Embedding(2421, 1536, padding_idx=0)
  (project_layer_1): Linear(in_features=1536, out_features=64, bias=True)
  (project_layer_2): Linear(in_features=128, out_features=13, bias=True)
  (entity_embeddings): Embedding(2803, 64)
  (relation_embeddings): Embedding(13, 64)
  (relational_dynamic_aggregation): RelationalDynamicAggregation(
    (relation_embeddings): Embedding(13, 64)
    (freq_real): Embedding(13, 33)
    (freq_imag): Embedding(13, 33)
  )
  (attn_head): MultiHeadAttention(
    (q_linear): Linear(in_features=64, out_features=64, bias=False)
    (k_linear): Linear(in_features=64, out_features=64, bias=False)
    (v_linear): Linear(in_features=64, out_features=64, bias=False)
  )
  (W1): Linear(in_features=64, out_features=64, bias=True)
  (W2): Linear(in_features=64, out_features=64, bias=True)
  (dropout_layer): Dropout(p=0, inplace=False)
  (layer_norm): LayerNorm((64,), eps=1e-05, elementwise_affine=True)
  (item_bias): Embedding(2422, 1)
)
INFO:root:Test Before Training: (HR@10:0.0891,HR@5:0.0389,HR@50:0.5148,NDCG@10:0.0378,NDCG@5:0.0218,NDCG@50:0.1283)
INFO:root:Optimizer: Adam
INFO:root:all_losses: [8.547828   0.71217227 0.69314724]
INFO:root:Epoch 1     loss=8.5478 [37.8 s]	 dev=(HR@5:0.1105,NDCG@5:0.0650) test=(HR@5:0.0740,NDCG@5:0.0418) [61.4 s] 
INFO:root:Save model to ../model/KDAPlus/KDAPlus_Office_2019_lr=0.0001_l2=...
…
