…
INFO:root:"# user": 944, "# item": 1350, "# entry": 99287
INFO:root:Appending history info...
INFO:root:Constructing relation triplets...
INFO:root:Item-item relations:[]
INFO:root:Attribute-based relations:['i_year', 'i_Action', 'i_Adventure', 'i_Animation', "i_Children's", 'i_Comedy', 'i_Crime', 'i_Documentary', 'i_Drama', 'i_Fantasy', 'i_Film-Noir', 'i_Horror', 'i_Musical', 'i_Mystery', 'i_Romance', 'i_Sci-Fi', 'i_Thriller', 'i_War', 'i_Western', 'i_Other']
INFO:root:"# relation": 29, "# triplet": 3789
INFO:root:Save corpus to ../data/ml-100k\DFTReader_8.pkl
INFO:root:#params: 2351902
INFO:root:KDAPlus(
  (user_embeddings): Embedding(944, 64)
  (item_embeddings): Embedding(1350, 1536, padding_idx=0)
  (project_layer_1): Linear(in_features=1536, out_features=64, bias=True)
  (project_layer_2): Linear(in_features=128, out_features=29, bias=True)
  (entity_embeddings): Embedding(1405, 64)
  (relation_embeddings): Embedding(29, 64)
  (relational_dynamic_aggregation): RelationalDynamicAggregation(
    (relation_embeddings): Embedding(29, 64)
    (freq_real): Embedding(29, 33)
    (freq_imag): Embedding(29, 33)
  )
  (attn_head): MultiHeadAttention(
    (q_linear): Linear(in_features=64, out_features=64, bias=False)
    (k_linear): Linear(in_features=64, out_features=64, bias=False)
    (v_linear): Linear(in_features=64, out_features=64, bias=False)
  )
  (W1): Linear(in_features=64, out_features=64, bias=True)
  (W2): Linear(in_features=64, out_features=64, bias=True)
  (dropout_layer): Dropout(p=0, inplace=False)
  (layer_norm): LayerNorm((64,), eps=1e-05, elementwise_affine=True)
  (item_bias): Embedding(1351, 1)
)
INFO:root:Test Before Training: (HR@10:0.1060,HR@5:0.0583,HR@50:0.4783,NDCG@10:0.0482,NDCG@5:0.0332,NDCG@50:0.1250)
INFO:root:Optimizer: Adam
INFO:root:all_losses: [7.3356233  0.6881632  0.69311935]
INFO:root:Epoch 1     loss=7.3356 [249.4 s]	 dev=(HR@5:0.2312,NDCG@5:0.1493) test=(HR@5:0.2174,NDCG@5:0.1445) [50.8 s] 
INFO:root:Save model to ../model/KDAPlus/KDAPlus_ml-100k_2019_lr=0.001_l2=...
…
