…
 num_neg         | 1            
 num_workers     | 5            
 only_predict    | 0            
 optimizer       | Adam         
 random_seed     | 2019         
 topk            | [5,10,50]    
=================================
INFO:root:cuda available: False
INFO:root:# cuda devices: 0
INFO:root:Reading data from "../data/", dataset = "Office" 
INFO:root:Counting dataset statistics...
INFO:root:"# user": 4906, "# item": 2421, "# entry": 53258
INFO:root:Appending history info...
INFO:root:Save corpus to ../data/Office\BaseReader.pkl
INFO:root:#params: 261568
INFO:root:SASRec(
  (i_embeddings): Embedding(2421, 64)
  (p_embeddings): Embedding(21, 64)
  (transformer_block): ModuleList(
    (0): TransformerLayer(
      (masked_attn_head): MultiHeadAttention(
        (q_linear): Linear(in_features=64, out_features=64, bias=True)
        (k_linear): Linear(in_features=64, out_features=64, bias=True)
        (v_linear): Linear(in_features=64, out_features=64, bias=True)
      )
      (layer_norm1): LayerNorm((64,), eps=1e-05, elementwise_affine=True)
      (dropout1): Dropout(p=0, inplace=False)
      (linear1): Linear(in_features=64, out_features=64, bias=True)
      (linear2): Linear(in_features=64, out_features=64, bias=True)
      (layer_norm2): LayerNorm((64,), eps=1e-05, elementwise_affine=True)
      (dropout2): Dropout(p=0, inplace=False)
    )
    (1): TransformerLayer(
      (masked_attn_head): MultiHeadAttention(
        (q_linear): Linear(in_features=64, out_features=64, bias=True)
        (k_linear): Linear(in_features=64, out_features=64, bias=True)
        (v_linear): Linear(in_features=64, out_features=64, bias=True)
      )
      (layer_norm1): LayerNorm((64,), eps=1e-05, elementwise_affine=True)
      (dropout1): Dropout(p=0, inplace=False)
      (linear1): Linear(in_features=64, out_features=64, bias=True)
      (linear2): Linear(in_features=64, out_features=64, bias=True)
      (layer_norm2): LayerNorm((64,), eps=1e-05, elementwise_affine=True)
      (dropout2): Dropout(p=0, inplace=False)
    )
    (2): TransformerLayer(
      (masked_attn_head): MultiHeadAttention(
        (q_linear): Linear(in_features=64, out_features=64, bias=True)
        (k_linear): Linear(in_features=64, out_features=64, bias=True)
        (v_linear): Linear(in_features=64, out_features=64, bias=True)
      )
      (layer_norm1): LayerNorm((64,), eps=1e-05, elementwise_affine=True)
      (dropout1): Dropout(p=0, inplace=False)
      (linear1): Linear(in_features=64, out_features=64, bias=True)
      (linear2): Linear(in_features=64, out_features=64, bias=True)
      (layer_norm2): LayerNorm((64,), eps=1e-05, elementwise_affine=True)
      (dropout2): Dropout(p=0, inplace=False)
    )
    (3): TransformerLayer(
      (masked_attn_head): MultiHeadAttention(
        (q_linear): Linear(in_features=64, out_features=64, bias=True)
        (k_linear): Linear(in_features=64, out_features=64, bias=True)
        (v_linear): Linear(in_features=64, out_features=64, bias=True)
      )
      (layer_norm1): LayerNorm((64,), eps=1e-05, elementwise_affine=True)
      (dropout1): Dropout(p=0, inplace=False)
      (linear1): Linear(in_features=64, out_features=64, bias=True)
      (linear2): Linear(in_features=64, out_features=64, bias=True)
      (layer_norm2): LayerNorm((64,), eps=1e-05, elementwise_affine=True)
      (dropout2): Dropout(p=0, inplace=False)
    )
    (4): TransformerLayer(
      (masked_attn_head): MultiHeadAttention(
        (q_linear): Linear(in_features=64, out_features=64, bias=True)
        (k_linear): Linear(in_features=64, out_features=64, bias=True)
        (v_linear): Linear(in_features=64, out_features=64, bias=True)
      )
      (layer_norm1): LayerNorm((64,), eps=1e-05, elementwise_affine=True)
      (dropout1): Dropout(p=0, inplace=False)
      (linear1): Linear(in_features=64, out_features=64, bias=True)
      (linear2): Linear(in_features=64, out_features=64, bias=True)
      (layer_norm2): LayerNorm((64,), eps=1e-05, elementwise_affine=True)
      (dropout2): Dropout(p=0, inplace=False)
    )
  )
)
INFO:root:Test Before Training: (HR@10:0.0970,HR@5:0.0481,HR@50:0.4991,NDCG@10:0.0439,NDCG@5:0.0283,NDCG@50:0.1279)
INFO:root:Optimizer: Adam
INFO:root:all_losses: [0.48543403]
INFO:root:Epoch 1     loss=0.4854 [20.9 s]	 dev=(HR@5:0.2012,NDCG@5:0.1196) test=(HR@5:0.1394,NDCG@5:0.0839) [12.0 s] 
…
 load            | 0            
 lr              | 0.001        
 metric          | ["NDCG","HR"]
 num_heads       | 4            
 num_layers      | 1            
 num_neg         | 1            
 num_workers     | 5            
 only_predict    | 0            
 optimizer       | Adam         
 random_seed     | 2019         
 topk            | [5,10,50]    
=================================
INFO:root:cuda available: False
INFO:root:# cuda devices: 0
INFO:root:Load corpus from ../data/Office\BaseReader.pkl
INFO:root:#params: 177344
INFO:root:SASRec(
  (i_embeddings): Embedding(2421, 64)
  (p_embeddings): Embedding(21, 64)
  (transformer_block): ModuleList(
    (0): TransformerLayer(
      (masked_attn_head): MultiHeadAttention(
        (q_linear): Linear(in_features=64, out_features=64, bias=True)
        (k_linear): Linear(in_features=64, out_features=64, bias=True)
        (v_linear): Linear(in_features=64, out_features=64, bias=True)
      )
      (layer_norm1): LayerNorm((64,), eps=1e-05, elementwise_affine=True)
      (dropout1): Dropout(p=0, inplace=False)
      (linear1): Linear(in_features=64, out_features=64, bias=True)
      (linear2): Linear(in_features=64, out_features=64, bias=True)
      (layer_norm2): LayerNorm((64,), eps=1e-05, elementwise_affine=True)
      (dropout2): Dropout(p=0, inplace=False)
    )
  )
)
INFO:root:Test Before Training: (HR@10:0.1109,HR@5:0.0591,HR@50:0.5244,NDCG@10:0.0512,NDCG@5:0.0348,NDCG@50:0.1374)
INFO:root:Optimizer: Adam
INFO:root:all_losses: [0.4961078]
INFO:root:Epoch 1     loss=0.4961 [8.5 s]	 dev=(HR@5:0.1900,NDCG@5:0.1196) test=(HR@5:0.1354,NDCG@5:0.0859) [10.2 s] 
…
 load            | 0            
 lr              | 0.001        
 metric          | ["NDCG","HR"]
 num_heads       | 4            
 num_layers      | 2            
 num_neg         | 1            
 num_workers     | 5            
 only_predict    | 0            
 optimizer       | Adam         
 random_seed     | 2019         
 topk            | [5,10,50]    
=================================
INFO:root:cuda available: False
INFO:root:# cuda devices: 0
INFO:root:Load corpus from ../data/Office\BaseReader.pkl
INFO:root:#params: 198400
INFO:root:SASRec(
  (i_embeddings): Embedding(2421, 64)
  (p_embeddings): Embedding(21, 64)
  (transformer_block): ModuleList(
    (0): TransformerLayer(
      (masked_attn_head): MultiHeadAttention(
        (q_linear): Linear(in_features=64, out_features=64, bias=True)
        (k_linear): Linear(in_features=64, out_features=64, bias=True)
        (v_linear): Linear(in_features=64, out_features=64, bias=True)
      )
      (layer_norm1): LayerNorm((64,), eps=1e-05, elementwise_affine=True)
      (dropout1): Dropout(p=0, inplace=False)
      (linear1): Linear(in_features=64, out_features=64, bias=True)
      (linear2): Linear(in_features=64, out_features=64, bias=True)
      (layer_norm2): LayerNorm((64,), eps=1e-05, elementwise_affine=True)
      (dropout2): Dropout(p=0, inplace=False)
    )
    (1): TransformerLayer(
      (masked_attn_head): MultiHeadAttention(
        (q_linear): Linear(in_features=64, out_features=64, bias=True)
        (k_linear): Linear(in_features=64, out_features=64, bias=True)
        (v_linear): Linear(in_features=64, out_features=64, bias=True)
      )
      (layer_norm1): LayerNorm((64,), eps=1e-05, elementwise_affine=True)
      (dropout1): Dropout(p=0, inplace=False)
      (linear1): Linear(in_features=64, out_features=64, bias=True)
      (linear2): Linear(in_features=64, out_features=64, bias=True)
      (layer_norm2): LayerNorm((64,), eps=1e-05, elementwise_affine=True)
      (dropout2): Dropout(p=0, inplace=False)
    )
  )
)
INFO:root:Test Before Training: (HR@10:0.1091,HR@5:0.0569,HR@50:0.5140,NDCG@10:0.0496,NDCG@5:0.0329,NDCG@50:0.1348)
INFO:root:Optimizer: Adam
INFO:root:all_losses: [0.49470207]
INFO:root:Epoch 1     loss=0.4947 [11.6 s]	 dev=(HR@5:0.1904,NDCG@5:0.1184) test=(HR@5:0.1409,NDCG@5:0.0886) [10.6 s] 
…
 load            | 0            
 lr              | 0.001        
 metric          | ["NDCG","HR"]
 num_heads       | 4            
 num_layers      | 3            
 num_neg         | 1            
 num_workers     | 5            
 only_predict    | 0            
 optimizer       | Adam         
 random_seed     | 2019         
 topk            | [5,10,50]    
=================================
INFO:root:cuda available: False
INFO:root:# cuda devices: 0
INFO:root:Load corpus from ../data/Office\BaseReader.pkl
INFO:root:#params: 219456
INFO:root:SASRec(
  (i_embeddings): Embedding(2421, 64)
  (p_embeddings): Embedding(21, 64)
  (transformer_block): ModuleList(
    (0): TransformerLayer(
      (masked_attn_head): MultiHeadAttention(
        (q_linear): Linear(in_features=64, out_features=64, bias=True)
        (k_linear): Linear(in_features=64, out_features=64, bias=True)
        (v_linear): Linear(in_features=64, out_features=64, bias=True)
      )
      (layer_norm1): LayerNorm((64,), eps=1e-05, elementwise_affine=True)
      (dropout1): Dropout(p=0, inplace=False)
      (linear1): Linear(in_features=64, out_features=64, bias=True)
      (linear2): Linear(in_features=64, out_features=64, bias=True)
      (layer_norm2): LayerNorm((64,), eps=1e-05, elementwise_affine=True)
      (dropout2): Dropout(p=0, inplace=False)
    )
    (1): TransformerLayer(
      (masked_attn_head): MultiHeadAttention(
        (q_linear): Linear(in_features=64, out_features=64, bias=True)
        (k_linear): Linear(in_features=64, out_features=64, bias=True)
        (v_linear): Linear(in_features=64, out_features=64, bias=True)
      )
      (layer_norm1): LayerNorm((64,), eps=1e-05, elementwise_affine=True)
      (dropout1): Dropout(p=0, inplace=False)
      (linear1): Linear(in_features=64, out_features=64, bias=True)
      (linear2): Linear(in_features=64, out_features=64, bias=True)
      (layer_norm2): LayerNorm((64,), eps=1e-05, elementwise_affine=True)
      (dropout2): Dropout(p=0, inplace=False)
    )
    (2): TransformerLayer(
      (masked_attn_head): MultiHeadAttention(
        (q_linear): Linear(in_features=64, out_features=64, bias=True)
        (k_linear): Linear(in_features=64, out_features=64, bias=True)
        (v_linear): Linear(in_features=64, out_features=64, bias=True)
      )
      (layer_norm1): LayerNorm((64,), eps=1e-05, elementwise_affine=True)
      (dropout1): Dropout(p=0, inplace=False)
      (linear1): Linear(in_features=64, out_features=64, bias=True)
      (linear2): Linear(in_features=64, out_features=64, bias=True)
      (layer_norm2): LayerNorm((64,), eps=1e-05, elementwise_affine=True)
      (dropout2): Dropout(p=0, inplace=False)
    )
  )
)
INFO:root:Test Before Training: (HR@10:0.0866,HR@5:0.0420,HR@50:0.4917,NDCG@10:0.0400,NDCG@5:0.0257,NDCG@50:0.1249)
INFO:root:Optimizer: Adam
INFO:root:all_losses: [0.49349228]
INFO:root:Epoch 1     loss=0.4935 [14.5 s]	 dev=(HR@5:0.2024,NDCG@5:0.1261) test=(HR@5:0.1482,NDCG@5:0.0926) [10.9 s] 
…
 load            | 0            
 lr              | 0.001        
 metric          | ["NDCG","HR"]
 num_heads       | 4            
 num_layers      | 4            
 num_neg         | 1            
 num_workers     | 5            
 only_predict    | 0            
 optimizer       | Adam         
 random_seed     | 2019         
 topk            | [5,10,50]    
=================================
INFO:root:cuda available: False
INFO:root:# cuda devices: 0
INFO:root:Load corpus from ../data/Office\BaseReader.pkl
INFO:root:#params: 240512
INFO:root:SASRec(
  (i_embeddings): Embedding(2421, 64)
  (p_embeddings): Embedding(21, 64)
  (transformer_block): ModuleList(
    (0): TransformerLayer(
      (masked_attn_head): MultiHeadAttention(
        (q_linear): Linear(in_features=64, out_features=64, bias=True)
        (k_linear): Linear(in_features=64, out_features=64, bias=True)
        (v_linear): Linear(in_features=64, out_features=64, bias=True)
      )
      (layer_norm1): LayerNorm((64,), eps=1e-05, elementwise_affine=True)
      (dropout1): Dropout(p=0, inplace=False)
      (linear1): Linear(in_features=64, out_features=64, bias=True)
      (linear2): Linear(in_features=64, out_features=64, bias=True)
      (layer_norm2): LayerNorm((64,), eps=1e-05, elementwise_affine=True)
      (dropout2): Dropout(p=0, inplace=False)
    )
    (1): TransformerLayer(
      (masked_attn_head): MultiHeadAttention(
        (q_linear): Linear(in_features=64, out_features=64, bias=True)
        (k_linear): Linear(in_features=64, out_features=64, bias=True)
        (v_linear): Linear(in_features=64, out_features=64, bias=True)
      )
      (layer_norm1): LayerNorm((64,), eps=1e-05, elementwise_affine=True)
      (dropout1): Dropout(p=0, inplace=False)
      (linear1): Linear(in_features=64, out_features=64, bias=True)
      (linear2): Linear(in_features=64, out_features=64, bias=True)
      (layer_norm2): LayerNorm((64,), eps=1e-05, elementwise_affine=True)
      (dropout2): Dropout(p=0, inplace=False)
    )
    (2): TransformerLayer(
      (masked_attn_head): MultiHeadAttention(
        (q_linear): Linear(in_features=64, out_features=64, bias=True)
        (k_linear): Linear(in_features=64, out_features=64, bias=True)
        (v_linear): Linear(in_features=64, out_features=64, bias=True)
      )
      (layer_norm1): LayerNorm((64,), eps=1e-05, elementwise_affine=True)
      (dropout1): Dropout(p=0, inplace=False)
      (linear1): Linear(in_features=64, out_features=64, bias=True)
      (linear2): Linear(in_features=64, out_features=64, bias=True)
      (layer_norm2): LayerNorm((64,), eps=1e-05, elementwise_affine=True)
      (dropout2): Dropout(p=0, inplace=False)
    )
    (3): TransformerLayer(
      (masked_attn_head): MultiHeadAttention(
        (q_linear): Linear(in_features=64, out_features=64, bias=True)
        (k_linear): Linear(in_features=64, out_features=64, bias=True)
        (v_linear): Linear(in_features=64, out_features=64, bias=True)
      )
      (layer_norm1): LayerNorm((64,), eps=1e-05, elementwise_affine=True)
      (dropout1): Dropout(p=0, inplace=False)
      (linear1): Linear(in_features=64, out_features=64, bias=True)
      (linear2): Linear(in_features=64, out_features=64, bias=True)
      (layer_norm2): LayerNorm((64,), eps=1e-05, elementwise_affine=True)
      (dropout2): Dropout(p=0, inplace=False)
    )
  )
)
INFO:root:Test Before Training: (HR@10:0.1164,HR@5:0.0585,HR@50:0.5205,NDCG@10:0.0536,NDCG@5:0.0352,NDCG@50:0.1388)
INFO:root:Optimizer: Adam
INFO:root:all_losses: [0.48999757]
INFO:root:Epoch 1     loss=0.4900 [17.7 s]	 dev=(HR@5:0.2218,NDCG@5:0.1436) test=(HR@5:0.1653,NDCG@5:0.1072) [11.3 s] 
…
 load            | 0            
 lr              | 0.001        
 metric          | ["NDCG","HR"]
 num_heads       | 4            
 num_layers      | 6            
 num_neg         | 1            
 num_workers     | 5            
 only_predict    | 0            
 optimizer       | Adam         
 random_seed     | 2019         
 topk            | [5,10,50]    
=================================
INFO:root:cuda available: False
INFO:root:# cuda devices: 0
INFO:root:Load corpus from ../data/Office\BaseReader.pkl
INFO:root:#params: 282624
INFO:root:SASRec(
  (i_embeddings): Embedding(2421, 64)
  (p_embeddings): Embedding(21, 64)
  (transformer_block): ModuleList(
    (0): TransformerLayer(
      (masked_attn_head): MultiHeadAttention(
        (q_linear): Linear(in_features=64, out_features=64, bias=True)
        (k_linear): Linear(in_features=64, out_features=64, bias=True)
        (v_linear): Linear(in_features=64, out_features=64, bias=True)
      )
      (layer_norm1): LayerNorm((64,), eps=1e-05, elementwise_affine=True)
      (dropout1): Dropout(p=0, inplace=False)
      (linear1): Linear(in_features=64, out_features=64, bias=True)
      (linear2): Linear(in_features=64, out_features=64, bias=True)
      (layer_norm2): LayerNorm((64,), eps=1e-05, elementwise_affine=True)
      (dropout2): Dropout(p=0, inplace=False)
    )
    (1): TransformerLayer(
      (masked_attn_head): MultiHeadAttention(
        (q_linear): Linear(in_features=64, out_features=64, bias=True)
        (k_linear): Linear(in_features=64, out_features=64, bias=True)
        (v_linear): Linear(in_features=64, out_features=64, bias=True)
      )
      (layer_norm1): LayerNorm((64,), eps=1e-05, elementwise_affine=True)
      (dropout1): Dropout(p=0, inplace=False)
      (linear1): Linear(in_features=64, out_features=64, bias=True)
      (linear2): Linear(in_features=64, out_features=64, bias=True)
      (layer_norm2): LayerNorm((64,), eps=1e-05, elementwise_affine=True)
      (dropout2): Dropout(p=0, inplace=False)
    )
    (2): TransformerLayer(
      (masked_attn_head): MultiHeadAttention(
        (q_linear): Linear(in_features=64, out_features=64, bias=True)
        (k_linear): Linear(in_features=64, out_features=64, bias=True)
        (v_linear): Linear(in_features=64, out_features=64, bias=True)
      )
      (layer_norm1): LayerNorm((64,), eps=1e-05, elementwise_affine=True)
      (dropout1): Dropout(p=0, inplace=False)
      (linear1): Linear(in_features=64, out_features=64, bias=True)
      (linear2): Linear(in_features=64, out_features=64, bias=True)
      (layer_norm2): LayerNorm((64,), eps=1e-05, elementwise_affine=True)
      (dropout2): Dropout(p=0, inplace=False)
    )
    (3): TransformerLayer(
      (masked_attn_head): MultiHeadAttention(
        (q_linear): Linear(in_features=64, out_features=64, bias=True)
        (k_linear): Linear(in_features=64, out_features=64, bias=True)
        (v_linear): Linear(in_features=64, out_features=64, bias=True)
      )
      (layer_norm1): LayerNorm((64,), eps=1e-05, elementwise_affine=True)
      (dropout1): Dropout(p=0, inplace=False)
      (linear1): Linear(in_features=64, out_features=64, bias=True)
      (linear2): Linear(in_features=64, out_features=64, bias=True)
      (layer_norm2): LayerNorm((64,), eps=1e-05, elementwise_affine=True)
      (dropout2): Dropout(p=0, inplace=False)
    )
    (4): TransformerLayer(
      (masked_attn_head): MultiHeadAttention(
        (q_linear): Linear(in_features=64, out_features=64, bias=True)
        (k_linear): Linear(in_features=64, out_features=64, bias=True)
        (v_linear): Linear(in_features=64, out_features=64, bias=True)
      )
      (layer_norm1): LayerNorm((64,), eps=1e-05, elementwise_affine=True)
      (dropout1): Dropout(p=0, inplace=False)
      (linear1): Linear(in_features=64, out_features=64, bias=True)
      (linear2): Linear(in_features=64, out_features=64, bias=True)
      (layer_norm2): LayerNorm((64,), eps=1e-05, elementwise_affine=True)
      (dropout2): Dropout(p=0, inplace=False)
    )
    (5): TransformerLayer(
      (masked_attn_head): MultiHeadAttention(
        (q_linear): Linear(in_features=64, out_features=64, bias=True)
        (k_linear): Linear(in_features=64, out_features=64, bias=True)
        (v_linear): Linear(in_features=64, out_features=64, bias=True)
      )
      (layer_norm1): LayerNorm((64,), eps=1e-05, elementwise_affine=True)
      (dropout1): Dropout(p=0, inplace=False)
      (linear1): Linear(in_features=64, out_features=64, bias=True)
      (linear2): Linear(in_features=64, out_features=64, bias=True)
      (layer_norm2): LayerNorm((64,), eps=1e-05, elementwise_affine=True)
      (dropout2): Dropout(p=0, inplace=False)
    )
  )
)
INFO:root:Test Before Training: (HR@10:0.1046,HR@5:0.0532,HR@50:0.4909,NDCG@10:0.0483,NDCG@5:0.0319,NDCG@50:0.1290)
INFO:root:Optimizer: Adam
INFO:root:all_losses: [0.486773]
INFO:root:Epoch 1     loss=0.4868 [27.2 s]	 dev=(HR@5:0.1839,NDCG@5:0.1132) test=(HR@5:0.1301,NDCG@5:0.0803) [13.5 s] 
…
