…
 num_heads       | 4                   
 num_layers      | 5                   
 num_neg         | 1                   
 num_workers     | 5                   
 only_predict    | 0                   
 optimizer       | Adam                
 pooling         | average             
 random_seed     | 2019                
 topk            | [5,10,50]           
========================================
INFO:root:cuda available: False
INFO:root:# cuda devices: 0
INFO:root:Load corpus from ../data/Grocery_and_Gourmet_Food\KGReader.pkl
INFO:root:#params: 1513802
INFO:root:RCF(
  (user_embeddings): Embedding(14681, 64)
  (entity_embeddings): Embedding(8512, 64)
  (relation_embeddings): Embedding(4, 64)
  (relational_dynamic_aggregation): RelationalDynamicAggregation(
    (relation_embeddings): Embedding(4, 64)
  )
  (attn_head): MultiHeadAttention(
    (q_linear): Linear(in_features=64, out_features=64, bias=False)
    (k_linear): Linear(in_features=64, out_features=64, bias=False)
    (v_linear): Linear(in_features=64, out_features=64, bias=False)
  )
  (W1): Linear(in_features=64, out_features=64, bias=True)
  (W2): Linear(in_features=64, out_features=64, bias=True)
  (dropout_layer): Dropout(p=0, inplace=False)
  (layer_norm): LayerNorm((64,), eps=1e-05, elementwise_affine=True)
  (item_bias): Embedding(8458, 1)
)
INFO:root:Test Before Training: (HR@10:0.0914,HR@5:0.0466,HR@50:0.4886,NDCG@10:0.0419,NDCG@5:0.0277,NDCG@50:0.1247)
INFO:root:Optimizer: Adam
INFO:root:all_losses: [2.2466443 0.6930334]
INFO:root:Epoch 1     loss=2.2466 [26.6 s]	 dev=(HR@5:0.3500,NDCG@5:0.2377) test=(HR@5:0.3065,NDCG@5:0.2041) [58.2 s] 
INFO:root:Save model to ../model/RCF/RCF_Grocery_and_Gourmet_Food_2019_lr=...
…
