…
 metric          | ["NDCG","HR"]
 neg_head_p      | 0.5          
 num_heads       | 4            
 num_layers      | 5            
 num_neg         | 1            
 num_workers     | 5            
 only_predict    | 0            
 optimizer       | Adam         
 pooling         | average      
 random_seed     | 2019         
 topk            | [5,10,50]    
=================================
INFO:root:cuda available: False
INFO:root:# cuda devices: 0
INFO:root:Load corpus from ../data/ml-100k\KGReader.pkl
INFO:root:#params: 173767
INFO:root:RCF(
  (user_embeddings): Embedding(944, 64)
  (entity_embeddings): Embedding(1405, 64)
  (relation_embeddings): Embedding(21, 64)
  (relational_dynamic_aggregation): RelationalDynamicAggregation(
    (relation_embeddings): Embedding(21, 64)
  )
  (attn_head): MultiHeadAttention(
    (q_linear): Linear(in_features=64, out_features=64, bias=False)
    (k_linear): Linear(in_features=64, out_features=64, bias=False)
    (v_linear): Linear(in_features=64, out_features=64, bias=False)
  )
  (W1): Linear(in_features=64, out_features=64, bias=True)
  (W2): Linear(in_features=64, out_features=64, bias=True)
  (dropout_layer): Dropout(p=0, inplace=False)
  (layer_norm): LayerNorm((64,), eps=1e-05, elementwise_affine=True)
  (item_bias): Embedding(1351, 1)
)
INFO:root:Test Before Training: (HR@10:0.1007,HR@5:0.0530,HR@50:0.5154,NDCG@10:0.0460,NDCG@5:0.0307,NDCG@50:0.1322)
INFO:root:Optimizer: Adam
INFO:root:all_losses: [0.5523308 0.6931471]
INFO:root:Epoch 1     loss=0.5523 [81.0 s]	 dev=(HR@5:0.2471,NDCG@5:0.1579) test=(HR@5:0.2153,NDCG@5:0.1442) [29.1 s] 
INFO:root:Save model to ../model/RCF/RCF_ml-100k_2019_lr=0.0001_l2=1e-06_n...
…
