…
INFO:root:"# user": 944, "# item": 1350, "# entry": 99287
INFO:root:Appending history info...
INFO:root:Constructing relation triplets...
INFO:root:Item-item relations:[]
INFO:root:Attribute-based relations:['i_year', 'i_Action', 'i_Adventure', 'i_Animation', "i_Children's", 'i_Comedy', 'i_Crime', 'i_Documentary', 'i_Drama', 'i_Fantasy', 'i_Film-Noir', 'i_Horror', 'i_Musical', 'i_Mystery', 'i_Romance', 'i_Sci-Fi', 'i_Thriller', 'i_War', 'i_Western', 'i_Other']
INFO:root:"# relation": 21, "# triplet": 3789
INFO:root:Save corpus to ../data/ml-100k\KGReader.pkl
INFO:root:#params: 173767
INFO:root:RCF(
  (user_embeddings): Embedding(944, 64)
  (entity_embeddings): Embedding(1405, 64)
  (relation_embeddings): Embedding(21, 64)
  (relational_dynamic_aggregation): RelationalDynamicAggregation(
    (relation_embeddings): Embedding(21, 64)
  )
  (attn_head): MultiHeadAttention(
    (q_linear): Linear(in_features=64, out_features=64, bias=False)
    (k_linear): Linear(in_features=64, out_features=64, bias=False)
    (v_linear): Linear(in_features=64, out_features=64, bias=False)
  )
  (W1): Linear(in_features=64, out_features=64, bias=True)
  (W2): Linear(in_features=64, out_features=64, bias=True)
  (dropout_layer): Dropout(p=0, inplace=False)
  (layer_norm): LayerNorm((64,), eps=1e-05, elementwise_affine=True)
  (item_bias): Embedding(1351, 1)
)
INFO:root:Test Before Training: (HR@10:0.1007,HR@5:0.0530,HR@50:0.5154,NDCG@10:0.0460,NDCG@5:0.0307,NDCG@50:0.1322)
INFO:root:Optimizer: Adam
INFO:root:all_losses: [0.3542506 0.6924344]
INFO:root:Epoch 1     loss=0.3543 [73.8 s]	 dev=(HR@5:0.4316,NDCG@5:0.2926) test=(HR@5:0.3690,NDCG@5:0.2405) [27.3 s] 
INFO:root:Save model to ../model/RCF/RCF_ml-100k_2019_lr=0.001_l2=1e-06_nu...
…
