…
=================================
INFO:root:cuda available: False
INFO:root:# cuda devices: 0
INFO:root:Reading data from "../data/", dataset = "Office" 
INFO:root:Counting dataset statistics...
INFO:root:"# user": 4906, "# item": 2421, "# entry": 53258
INFO:root:Appending history info...
INFO:root:Constructing relation triplets...
INFO:root:Item-item relations:['r_complement', 'r_substitute']
INFO:root:Attribute-based relations:['i_category', 'i_brand']
INFO:root:"# relation": 5, "# triplet": 60706
INFO:root:Save corpus to ../data/Office\KGReader.pkl
INFO:root:#params: 516854
INFO:root:RCF(
  (user_embeddings): Embedding(4906, 64)
  (entity_embeddings): Embedding(2803, 64)
  (relation_embeddings): Embedding(5, 64)
  (relational_dynamic_aggregation): RelationalDynamicAggregation(
    (relation_embeddings): Embedding(5, 64)
  )
  (attn_head): MultiHeadAttention(
    (q_linear): Linear(in_features=64, out_features=64, bias=False)
    (k_linear): Linear(in_features=64, out_features=64, bias=False)
    (v_linear): Linear(in_features=64, out_features=64, bias=False)
  )
  (W1): Linear(in_features=64, out_features=64, bias=True)
  (W2): Linear(in_features=64, out_features=64, bias=True)
  (dropout_layer): Dropout(p=0, inplace=False)
  (layer_norm): LayerNorm((64,), eps=1e-05, elementwise_affine=True)
  (item_bias): Embedding(2422, 1)
)
INFO:root:Test Before Training: (HR@10:0.0930,HR@5:0.0487,HR@50:0.5105,NDCG@10:0.0436,NDCG@5:0.0295,NDCG@50:0.1314)
INFO:root:Optimizer: Adam
INFO:root:all_losses: [1.2813863 0.6930952]
INFO:root:Epoch 1     loss=1.2814 [94.3 s]	 dev=(HR@5:0.1914,NDCG@5:0.1197) test=(HR@5:0.1366,NDCG@5:0.0885) [38.1 s] 
INFO:root:Save model to ../model/RCF/RCF_Office_2019_lr=0.001_l2=1e-06_num...
…
