…
 message         |              
 metric          | ["NDCG","HR"]
 neg_head_p      | 0.5          
 num_heads       | 4            
 num_layers      | 5            
 num_neg         | 1            
 num_workers     | 5            
 only_predict    | 0            
 optimizer       | Adam         
 pooling         | average      
 random_seed     | 2019         
 topk            | [5,10,50]    
=================================
INFO:root:cuda available: True
INFO:root:# cuda devices: 1
INFO:root:Load corpus from ../data/Office\KGReader.pkl
INFO:root:#params: 516854
INFO:root:RCF(
  (user_embeddings): Embedding(4906, 64)
  (entity_embeddings): Embedding(2803, 64)
  (relation_embeddings): Embedding(5, 64)
  (relational_dynamic_aggregation): RelationalDynamicAggregation(
    (relation_embeddings): Embedding(5, 64)
  )
  (attn_head): MultiHeadAttention(
    (q_linear): Linear(in_features=64, out_features=64, bias=False)
    (k_linear): Linear(in_features=64, out_features=64, bias=False)
    (v_linear): Linear(in_features=64, out_features=64, bias=False)
  )
  (W1): Linear(in_features=64, out_features=64, bias=True)
  (W2): Linear(in_features=64, out_features=64, bias=True)
  (dropout_layer): Dropout(p=0, inplace=False)
  (layer_norm): LayerNorm((64,), eps=1e-05, elementwise_affine=True)
  (item_bias): Embedding(2422, 1)
)
INFO:root:Test Before Training: (HR@10:1.0000,HR@5:1.0000,HR@50:1.0000,NDCG@10:1.0000,NDCG@5:1.0000,NDCG@50:1.0000)
INFO:root:Optimizer: Adam
INFO:root:Early stop manually
INFO:root:Namespace(model_name='RCF')
INFO:root:--------------------------------------------- BEGIN: 2025-03-16 13:15:59 ---------------------------------------------
INFO:root:
=================================
…
