…
INFO:root:cuda available: True
INFO:root:# cuda devices: 1
INFO:root:Reading data from "../data/", dataset = "Office" 
INFO:root:Counting dataset statistics...
INFO:root:"# user": 4906, "# item": 2421, "# entry": 53258
INFO:root:Appending history info...
INFO:root:Constructing relation triplets...
INFO:root:Item-item relations:['r_complement', 'r_substitute']
INFO:root:Attribute-based relations:['i_category', 'i_brand']
INFO:root:"# relation": 10, "# triplet": 60706
INFO:root:Save corpus to ../data/Office\KGReader_5.pkl
INFO:root:#params: 4335488
INFO:root:RCFPlus(
  (user_embeddings): Embedding(4906, 64)
  (item_embeddings): Embedding(2421, 1536, padding_idx=0)
  (project_layer_1): Linear(in_features=1536, out_features=64, bias=True)
  (project_layer_2): Linear(in_features=128, out_features=10, bias=True)
  (entity_embeddings): Embedding(2803, 64)
  (relation_embeddings): Embedding(10, 64)
  (relational_dynamic_aggregation): RelationalDynamicAggregation(
    (relation_embeddings): Embedding(10, 64)
  )
  (attn_head): MultiHeadAttention(
    (q_linear): Linear(in_features=64, out_features=64, bias=False)
    (k_linear): Linear(in_features=64, out_features=64, bias=False)
    (v_linear): Linear(in_features=64, out_features=64, bias=False)
  )
  (W1): Linear(in_features=64, out_features=64, bias=True)
  (W2): Linear(in_features=64, out_features=64, bias=True)
  (dropout_layer): Dropout(p=0, inplace=False)
  (layer_norm): LayerNorm((64,), eps=1e-05, elementwise_affine=True)
  (item_bias): Embedding(2422, 1)
)
